…
__________________________________________________________________________________________________
 Layer (type)                   Output Shape         Param #     Connected to                     
==================================================================================================
 input_3 (InputLayer)           [(None, 224, 224, 3  0           []                               
                                )]                                                                
                                                                                                  
 data_augmentation (Sequential)  (None, 128, 128, 3)  7          ['input_3[0][0]']                
                                                                                                  
 patches_1 (Patches)            (None, None, 108)    0           ['data_augmentation[0][0]']      
                                                                                                  
 patch_encoder (PatchEncoder)   (None, 441, 64)      35200       ['patches_1[0][0]']              
                                                                                                  
 layer_normalization (LayerNorm  (None, 441, 64)     128         ['patch_encoder[0][0]']          
 alization)                                                                                       
                                                                                                  
 multi_head_attention (MultiHea  (None, 441, 64)     66368       ['layer_normalization[0][0]',    
 dAttention)                                                      'layer_normalization[0][0]']    
                                                                                                  
 add (Add)                      (None, 441, 64)      0           ['multi_head_attention[0][0]',   
                                                                  'patch_encoder[0][0]']          
                                                                                                  
 layer_normalization_1 (LayerNo  (None, 441, 64)     128         ['add[0][0]']                    
 rmalization)                                                                                     
                                                                                                  
 dense_3 (Dense)                (None, 441, 128)     8320        ['layer_normalization_1[0][0]']  
                                                                                                  
 dropout (Dropout)              (None, 441, 128)     0           ['dense_3[0][0]']                
                                                                                                  
 dense_4 (Dense)                (None, 441, 64)      8256        ['dropout[0][0]']                
                                                                                                  
 dropout_1 (Dropout)            (None, 441, 64)      0           ['dense_4[0][0]']                
                                                                                                  
 add_1 (Add)                    (None, 441, 64)      0           ['dropout_1[0][0]',              
                                                                  'add[0][0]']                    
                                                                                                  
 layer_normalization_2 (LayerNo  (None, 441, 64)     128         ['add_1[0][0]']                  
 rmalization)                                                                                     
                                                                                                  
 multi_head_attention_1 (MultiH  (None, 441, 64)     66368       ['layer_normalization_2[0][0]',  
 eadAttention)                                                    'layer_normalization_2[0][0]']  
                                                                                                  
 add_2 (Add)                    (None, 441, 64)      0           ['multi_head_attention_1[0][0]', 
                                                                  'add_1[0][0]']                  
                                                                                                  
 layer_normalization_3 (LayerNo  (None, 441, 64)     128         ['add_2[0][0]']                  
 rmalization)                                                                                     
                                                                                                  
 dense_5 (Dense)                (None, 441, 128)     8320        ['layer_normalization_3[0][0]']  
                                                                                                  
 dropout_2 (Dropout)            (None, 441, 128)     0           ['dense_5[0][0]']                
                                                                                                  
 dense_6 (Dense)                (None, 441, 64)      8256        ['dropout_2[0][0]']              
                                                                                                  
 dropout_3 (Dropout)            (None, 441, 64)      0           ['dense_6[0][0]']                
                                                                                                  
 add_3 (Add)                    (None, 441, 64)      0           ['dropout_3[0][0]',              
                                                                  'add_2[0][0]']                  
                                                                                                  
 layer_normalization_4 (LayerNo  (None, 441, 64)     128         ['add_3[0][0]']                  
 rmalization)                                                                                     
                                                                                                  
 multi_head_attention_2 (MultiH  (None, 441, 64)     66368       ['layer_normalization_4[0][0]',  
 eadAttention)                                                    'layer_normalization_4[0][0]']  
                                                                                                  
 add_4 (Add)                    (None, 441, 64)      0           ['multi_head_attention_2[0][0]', 
                                                                  'add_3[0][0]']                  
                                                                                                  
 layer_normalization_5 (LayerNo  (None, 441, 64)     128         ['add_4[0][0]']                  
 rmalization)                                                                                     
                                                                                                  
 dense_7 (Dense)                (None, 441, 128)     8320        ['layer_normalization_5[0][0]']  
                                                                                                  
 dropout_4 (Dropout)            (None, 441, 128)     0           ['dense_7[0][0]']                
                                                                                                  
 dense_8 (Dense)                (None, 441, 64)      8256        ['dropout_4[0][0]']              
                                                                                                  
 dropout_5 (Dropout)            (None, 441, 64)      0           ['dense_8[0][0]']                
                                                                                                  
 add_5 (Add)                    (None, 441, 64)      0           ['dropout_5[0][0]',              
                                                                  'add_4[0][0]']                  
                                                                                                  
 layer_normalization_6 (LayerNo  (None, 441, 64)     128         ['add_5[0][0]']                  
 rmalization)                                                                                     
                                                                                                  
 multi_head_attention_3 (MultiH  (None, 441, 64)     66368       ['layer_normalization_6[0][0]',  
 eadAttention)                                                    'layer_normalization_6[0][0]']  
                                                                                                  
 add_6 (Add)                    (None, 441, 64)      0           ['multi_head_attention_3[0][0]', 
                                                                  'add_5[0][0]']                  
                                                                                                  
 layer_normalization_7 (LayerNo  (None, 441, 64)     128         ['add_6[0][0]']                  
 rmalization)                                                                                     
                                                                                                  
 dense_9 (Dense)                (None, 441, 128)     8320        ['layer_normalization_7[0][0]']  
                                                                                                  
 dropout_6 (Dropout)            (None, 441, 128)     0           ['dense_9[0][0]']                
                                                                                                  
 dense_10 (Dense)               (None, 441, 64)      8256        ['dropout_6[0][0]']              
                                                                                                  
 dropout_7 (Dropout)            (None, 441, 64)      0           ['dense_10[0][0]']               
                                                                                                  
 add_7 (Add)                    (None, 441, 64)      0           ['dropout_7[0][0]',              
                                                                  'add_6[0][0]']                  
                                                                                                  
 layer_normalization_8 (LayerNo  (None, 441, 64)     128         ['add_7[0][0]']                  
 rmalization)                                                                                     
                                                                                                  
 multi_head_attention_4 (MultiH  (None, 441, 64)     66368       ['layer_normalization_8[0][0]',  
 eadAttention)                                                    'layer_normalization_8[0][0]']  
                                                                                                  
 add_8 (Add)                    (None, 441, 64)      0           ['multi_head_attention_4[0][0]', 
                                                                  'add_7[0][0]']                  
                                                                                                  
 layer_normalization_9 (LayerNo  (None, 441, 64)     128         ['add_8[0][0]']                  
 rmalization)                                                                                     
                                                                                                  
 dense_11 (Dense)               (None, 441, 128)     8320        ['layer_normalization_9[0][0]']  
                                                                                                  
 dropout_8 (Dropout)            (None, 441, 128)     0           ['dense_11[0][0]']               
                                                                                                  
 dense_12 (Dense)               (None, 441, 64)      8256        ['dropout_8[0][0]']              
                                                                                                  
 dropout_9 (Dropout)            (None, 441, 64)      0           ['dense_12[0][0]']               
                                                                                                  
 add_9 (Add)                    (None, 441, 64)      0           ['dropout_9[0][0]',              
                                                                  'add_8[0][0]']                  
                                                                                                  
 layer_normalization_10 (LayerN  (None, 441, 64)     128         ['add_9[0][0]']                  
 ormalization)                                                                                    
                                                                                                  
 multi_head_attention_5 (MultiH  (None, 441, 64)     66368       ['layer_normalization_10[0][0]', 
 eadAttention)                                                    'layer_normalization_10[0][0]'] 
                                                                                                  
 add_10 (Add)                   (None, 441, 64)      0           ['multi_head_attention_5[0][0]', 
                                                                  'add_9[0][0]']                  
                                                                                                  
 layer_normalization_11 (LayerN  (None, 441, 64)     128         ['add_10[0][0]']                 
 ormalization)                                                                                    
                                                                                                  
 dense_13 (Dense)               (None, 441, 128)     8320        ['layer_normalization_11[0][0]'] 
                                                                                                  
 dropout_10 (Dropout)           (None, 441, 128)     0           ['dense_13[0][0]']               
                                                                                                  
 dense_14 (Dense)               (None, 441, 64)      8256        ['dropout_10[0][0]']             
                                                                                                  
 dropout_11 (Dropout)           (None, 441, 64)      0           ['dense_14[0][0]']               
                                                                                                  
 add_11 (Add)                   (None, 441, 64)      0           ['dropout_11[0][0]',             
                                                                  'add_10[0][0]']                 
                                                                                                  
 layer_normalization_12 (LayerN  (None, 441, 64)     128         ['add_11[0][0]']                 
 ormalization)                                                                                    
                                                                                                  
 flatten_2 (Flatten)            (None, 28224)        0           ['layer_normalization_12[0][0]'] 
                                                                                                  
 dropout_12 (Dropout)           (None, 28224)        0           ['flatten_2[0][0]']              
                                                                                                  
 dense_15 (Dense)               (None, 512)          14451200    ['dropout_12[0][0]']             
                                                                                                  
 dropout_13 (Dropout)           (None, 512)          0           ['dense_15[0][0]']               
                                                                                                  
 dense_16 (Dense)               (None, 256)          131328      ['dropout_13[0][0]']             
                                                                                                  
 dropout_14 (Dropout)           (None, 256)          0           ['dense_16[0][0]']               
                                                                                                  
 dense_17 (Dense)               (None, 2)            514         ['dropout_14[0][0]']             
                                                                                                  
==================================================================================================
Total params: 15,117,577
Trainable params: 15,117,570
Non-trainable params: 7
__________________________________________________________________________________________________
…
